data.pth (torch, 5418 bytes, 6 tensors)

l1.weight f4 [8, 54]
-0.19829652 -0.078244604 0.21230786 0.43487513 0.2893399 0.36071473 0.1705405 0.2512604
0.17037363 0.30968228 0.6488294 -0.15799576 -0.048405867 -0.29517743 -0.026968746 -0.32470617
0.63491493 0.27098447 -0.05836905 0.6845926 -0.17877543 0.7320747 0.6743351 0.23913531
0.18842165 0.6333456 -0.31208277 -0.14947501 -0.19416852 -0.3071462 0.17004848 -0.35446188
0.023893723 0.39521047 -0.13750726 -0.10394156 -0.41610476 0.29597375 0.26958752 0.25039792
0.2289814 -0.18317339 -0.22575802 -0.14740092 0.021314675 -0.19422308 -0.6580949 -0.28099266
0.40152624 -0.42675486 -0.21139033 -0.23923469 0.36584163 0.00011414256 -0.08740577 0.6335625
0.5833764 0.39419645 0.47380412 -0.541169 0.37451848 0.5491608 0.60941076 0.36806858
0.51203066 0.58670044 0.34920838 0.6214487 0.60446525 0.2971603 0.5054446 -0.53269565
-0.31382394 0.632599 0.005521632 0.6504245 0.6168498 0.5595312 0.49741974 0.43954545
-0.4315439 0.55945545 -0.14808236 0.3834682 -0.2919655 0.53393763 0.091737166 0.35730955
0.5102686 0.3524172 -0.098636486 0.5035908 0.37603 0.49538898 -0.47609875 -0.58261526
0.38328785 0.3987247 0.6667463 0.65262914 -0.023591116 0.007855038 0.18457925 -0.551342
0.4151786 -0.3882914 0.53466976 0.2138497 -0.22961304 -0.34201825 0.5034641 0.39895454
0.57346857 0.53617203 0.2841404 0.3285016 0.40497103 0.40686148 0.13818328 -0.2551433
0.55677134 -0.24119717 -0.08261952 -0.3547074 0.094116904 0.42228696 0.091195114 0.24481975
-0.28125784 0.25274342 0.19497682 0.09227355 0.0422656 0.365158 0.2075073 -0.3274463
-0.03492462 -0.372849 0.17243567 -0.3194436 0.0759399 0.5907021 -0.17385623 -0.3015205
0.11931984 0.2994375 0.5122647 0.33297715 0.18909672 0.09941356 -0.25526285 -0.29383537
0.09143845 -0.08231855 -0.68798316 -0.12148799 0.2465138 0.11526069 -0.31992823 0.27080178
0.53059655 0.3259717 0.5273208 0.16963853 -0.26894772 0.47703668 0.19951819 -0.540138
-0.3713182 -0.5297438 -0.54945284 -0.38522476 0.5561813 0.58887655 -0.064938545 0.3420814
-0.20415072 0.28557932 0.6522676 -0.6399949 0.25789565 0.75007814 0.3451772 0.77028304
0.74643564 0.68800855 0.40700358 0.6490047 0.07968563 -0.47240898 -0.45344096 -0.25148952
-0.29041648 0.34472954 0.3728041 -0.47605908 -0.27676627 0.28149578 -0.30861962 -0.45920095
-0.19268915 -0.33430314 -0.2510292 0.4430298 0.35905477 -0.07704446 0.17125814 -0.13941406
0.8517941 0.18415292 0.32581267 -0.045130547 0.2857221 0.33654028 -0.30422932 0.013604136
0.2716491 0.025191039 0.51801676 0.24543153 0.45687193 -0.59480053 0.4584823 0.34928027
0.56756186 0.45858306 0.459776 0.58690643 0.6428793 0.41167763 0.1291246 0.51105344
0.44248 -0.6441789 -0.09224393 0.5101345 0.21700831 0.49392545 0.4658136 0.39195812
0.5816247 0.3685156 -0.026947804 0.055991024 0.13632986 -0.06705031 -0.44113722 0.47357592
0.30335364 0.4889684 0.22423577 0.44181886 0.26106128 0.60583544 0.32447457 0.25979644
00000000: 3e0e 4bbe b53e a0bd 3b67 593e f4a7 de3e
00000010: 5c24 943e 9aaf b83e 2ba2 2e3e 34a5 803e
00000020: 6d76 2e3e ad8e 9e3e af19 263f a4c9 21be
00000030: 3b45 46bd 7f21 97be 8fed dcbc e33f a6be
00000040: c989 223f 7abe 8a3e 6314 6fbd 7641 2f3f
00000050: e810 37be 3f69 3b3f 3aa1 2c3f e3df 743e
00000060: 9bf1 403e f022 223f 50c9 9fbe fa0f 19be
00000070: 1dd4 46be 4442 9dbe 3021 2e3e 077c b5be
00000080: c5bc c33c 0759 ca3e b4ce 0cbe 50df d4bd
00000090: af0b d5be df89 973e 6007 8a3e 2834 803e
000000a0: 1a7a 6a3e ce91 3bbe 1c2d 67be 44f0 16be
000000b0: 1d9c ae3c 6ae2 46be e878 28bf 45de 8fbe
000000c0: d994 cd3e 9d7f dabe b576 58be f0f9 74be
000000d0: 984f bb3e d25f ef38 cc01 b3bd 2731 223f
000000e0: 2858 153f 1ed4 c93e 7496 f23e 0d8a 0abf
000000f0: e3c0 bf3e cd95 0c3f 5802 1c3f 7c73 bc3e
00000100: 7114 033f 0032 163f 71cb b23e 4317 1f3f
00000110: 3cbe 1a3f 6525 983e d164 013f be5e 08bf
00000120: 88ad a0be 02f2 213f ceee b43b 3882 263f
00000130: dee9 1d3f 703d 0f3f cdad fe3e 1a0c e13e
00000140: 52f3 dcbe 7938 0f3f e7a2 17be f255 c43e
00000150: 817c 95be 23b0 083f b2e0 bb3d 47f1 b63e
00000160: f7a0 023f 0770 b43e ed01 cabd 54eb 003f
00000170: 0187 c03e a0a3 fd3e 37c3 f3be 4626 15bf
00000180: 4e3e c43e a525 cc3e e3af 2a3f b412 273f
00000190: 2842 c1bc 6bb2 003c 5802 3d3e c024 0dbf
000001a0: 4a92 d43e 21ce c6be 1ee0 083f 6afb 5a3e
000001b0: ae1f 6bbe 041d afbe 06e3 003f c543 cc3e
000001c0: d6ce 123f 9242 093f da7a 913e 5d31 a83e
000001d0: 5d58 cf3e 2650 d03e eb7f 0d3e 25a2 82be
000001e0: 9188 0e3f 64fc 76be 6c34 a9bd 359c b5be
000001f0: 5dc0 c03d ff35 d83e 81c4 ba3d 07b2 7a3e
00000200: 0701 90be 9667 813e 01a8 473e eaf9 bc3d
00000210: b21e 2d3d fdf5 ba3e cb7c 543e 0ba7 a7be
00000220: 1e0d 0fbd 10e6 bebe fa92 303e 1d8e a3be
00000230: 6186 9b3d 4138 173f 5e07 32be e560 9abe
00000240: f65d f43d df4f 993e c823 033f fb7b aa3e
00000250: 92a2 413e 5699 cb3d d0b1 82be 9771 96be
00000260: 1544 bb3d a196 a8bd aa1f 30bf b2ce f8bd
00000270: 1d6e 7c3e cc0d ec3d a2cd a3be 88a6 8a3e
00000280: 2dd5 073f c3e5 a63e 7ffe 063f b9b5 2d3e
00000290: 84b3 89be 273e f43e 7f4e 4c3e 7c46 0abf
000002a0: 6b1d bebe 4a9d 07bf f1a8 0cbf 2e3c c5be
000002b0: e661 0e3f 9dc0 163f 80fe 84bd 4b25 af3e
000002c0: e30c 51be 7437 923e 02fb 263f b5d6 23bf
000002d0: e60a 843e 1f05 403f 11bb b03e 4531 453f
000002e0: 6816 3f3f 5421 303f c662 d03e 2c25 263f
000002f0: 3832 a33d 97df f1be 6a29 e8be 3cc3 80be
00000300: 78b1 94be 6480 b03e 2ee0 be3e 04be f3be
00000310: 4fb4 8dbe 3720 903e 6403 9ebe 631c ebbe
00000320: 4e50 45be c829 abbe e686 80be cdd4 e23e
00000330: 07d6 b73e 7cc9 9dbd 4b5e 2f3e 8fc2 0ebe
00000340: 2e0f 5a3f 9592 3c3e ebd0 a63e cfda 38bd
00000350: 2b4a 923e 024f ac3e f2c3 9bbe e2e3 5e3c
00000360: 9715 8b3e 705d ce3c bf9c 043f 6752 7b3e
00000370: 1eeb e93e d944 18bf 31be ea3e ddd4 b23e
00000380: bc4b 113f 66cb ea3e c367 eb3e 803f 163f
00000390: bd93 243f 69c7 d23e 3d39 043e 66d4 023f
000003a0: bd8c e23e e9e8 24bf 63ea bcbd 2d98 023f
000003b0: 6d37 5e3e cce3 fc3e 1f7f ee3e bcae c83e
000003c0: 5be5 143f 14ae bc3e a4c1 dcbc d856 653d
000003d0: 0e9a 0b3e ac51 89bd bddc e1be 8b78 f23e
000003e0: 2b51 9b3e 115a fa3e 109e 653e 1536 e23e
000003f0: d3a9 853e 0818 1b3f 8821 a63e 0a04 853e

l1.bias f4 [8]
0.65812284 0.57048386 0.6323228 0.79554695 0.81257904 0.36275157 0.7493204 0.61137366
00000000: bd7a 283f 3b0b 123f e8df 213f f7a8 4b3f
00000010: 2e05 503f 93ba b93e 76d3 3f3f fc82 1c3f

l2.weight f4 [8, 8]
-0.20948319 0.10555235 0.20660713 0.006467139 -0.059879247 -0.20549382 -0.23272327 -0.08759876
0.13465367 -0.085684955 0.03654755 -0.20791928 0.028516866 -0.011915251 -0.24646308 -0.00081496383
0.068001926 1.2682949 0.36906415 -1.1139876 0.93825597 -1.1034008 0.013762335 -0.11661671
0.8221926 1.0122012 0.13504134 0.9477133 0.7525716 0.1596055 -1.5267421 0.6923398
0.3029469 0.018526938 0.43965483 -0.93930817 0.6932044 -1.3316134 -0.31036142 0.5340834
-0.4628922 -1.2985114 0.57289773 0.42512095 0.827196 0.8992077 0.74676853 0.64213616
1.3917772 0.5565945 0.9362131 -1.0822011 0.122232944 -1.1309601 0.60733545 1.3570889
-0.95302904 1.0424722 -0.9291128 0.7195533 0.6860991 -0.6329325 1.1054162 -0.9136605
00000000: c382 56be d52b d83d d290 533e 4bea d33b
00000010: f143 75bd f96c 52be 024f 6ebe fb66 b3bd
00000020: a7e2 093e 987b afbd e2b2 153d cbe8 54be
00000030: 349c e93c 2f38 43bc d160 7cbe 4ca3 55ba
00000040: 9844 8b3d 7d57 a23f faf5 bc3e 2597 8ebf
00000050: 8b31 703f 3d3c 8dbf 6b7b 613c bed4 eebd
00000060: 377b 523f cf8f 813f 4748 0a3e 579d 723f
00000070: 88a8 403f a06f 233e 496c c3bf 2e3d 313f
00000080: db1b 9b3e cec5 973c 701a e13e 8076 70bf
00000090: d875 313f 4f72 aabf b1e7 9ebe b1b9 083f
000000a0: 3500 edbe 9f35 a6bf 6da9 123f 74a9 d93e
000000b0: 1ec3 533f 7a32 663f 392c 3f3f 0963 243f
000000c0: c125 b23f fa7c 0e3f a9ab 6f3f 9185 8abf
000000d0: 4455 fa3d 4dc3 90bf 567a 1b3f 17b5 ad3f
000000e0: b6f9 73bf bb6f 853f 56da 6dbf a534 383f
000000f0: 31a4 2f3f dd07 22bf 477e 8d3f a8e5 69bf

l2.bias f4 [8]
-0.25678834 -0.17650023 -0.2768687 0.09303895 0.28029826 0.49602437 0.5461367 0.6185973
00000000: c379 83be 7abc 34be bcc1 8dbe 348b be3d
00000010: 4183 8f3e e8f6 fd3e 9dcf 0b3f 655c 1e3f

l3.weight f4 [7, 8]
-0.11286235 0.25095528 -0.1034851 0.47190693 -0.0021913324 -1.3309017 -1.092945 0.29090646
0.14254974 -0.08793631 0.7529077 -1.098175 -0.7369416 -0.9901352 0.15736999 0.2665061
-0.07944086 0.24341838 -1.4820026 -1.1402829 0.47946545 -0.0047643306 0.93689406 -0.94978356
0.27901828 -0.023464702 -0.53025454 0.99037117 -0.12835325 -0.52233106 -0.02303489 -1.1457081
0.21917777 -0.036818128 -0.7160422 -0.4660443 -0.513653 1.0189208 -0.9948412 -1.3299524
0.22637586 -0.14240998 0.7549435 -0.0817349 0.67210543 -1.0150537 0.2729456 -0.86651504
0.22493401 -0.25186467 -1.5597738 -0.8478734 -0.47320008 0.020970669 -1.0678812 0.9175898
00000000: 6024 e7bd 367d 803e ffef d3bd c99d f13e
00000010: 759c 0fbb fd5a aabf 9fe5 8bbf b1f1 943e
00000020: 8ff8 113e f417 b4bd 8fbe 403f 0091 8cbf
00000030: 34a8 3cbf 8079 7dbf 9925 213e 7d73 883e
00000040: e4b1 a2bd ab42 793e 43b2 bdbf caf4 91bf
00000050: 7f7c f53e 1a1e 9cbb 4ad8 6f3f 0425 73bf
00000060: 7cdb 8e3e 0c39 c0bc c3be 07bf f788 7d3f
00000070: 096f 03be 7db7 05bf aab3 bcbc 90a6 92bf
00000080: 2370 603e 9bce 16bd 8b4e 37bf 5c9d eebe
00000090: c37e 03bf ff6b 823f eaad 7ebf e13b aabf
000000a0: 13cf 673e ecd3 11be fa43 413f a164 a7bd
000000b0: 1a0f 2c3f 48ed 81bf 87bf 8b3e eed3 5dbf
000000c0: 1a55 663e 68f4 80be aba6 c7bf 3b0e 59bf
000000d0: 4847 f2be aeca ab3c 55b0 88bf 2ae7 6a3f

l3.bias f4 [7]
-0.46089116 -0.3216697 0.32507783 -0.12332886 0.46018156 -0.69864815 0.565427
00000000: edf9 ebbe e4b1 a4be 9a70 a63e d793 fcbd
00000010: eb9c eb3e 9bda 32bf d3bf 103f
